artifacts/model_dict.pt (torch, 61293 bytes, 7 tensors)

conv1.bias f4 [64]
00000000: fde5 b23d b501 41bd 3ba3 803c e324 cb3d
00000010: 9d3d 71bd 3819 72bd 5233 1bbd 1f30 71bd
00000020: 32c4 2ebd e8ad 2fbc 0ed1 d23d 1e79 9e3d
00000030: 53ec c33d e8ba 7dbd f9d0 15bd 91be 73bd
00000040: 6d4e b23d 70c9 62bd 7507 acbc a4c9 d83d
00000050: f396 59bd 18c9 48bd bac5 95bd 4505 e93c
00000060: b9b4 79bd af2c 46bd 0aaa be3d fb8f da3d
00000070: 0bf0 6ebd b8f9 a43d 69d0 dd3d 51cc a33d
00000080: f83a 9c3d 0c23 d93d e58b 61bd 91c8 61bd
00000090: 0a50 8abd ed7f c73d c8eb 70bd 6c45 ab3d
000000a0: fe64 8f3d f2d2 db3d 7832 76bd 8b82 72bd
000000b0: 9391 d23d d381 be3c 624e 8fbd d9a1 843d
000000c0: c569 40bd 10c9 ce3d a789 5fbd 5f8b e33d
000000d0: bee9 6fbd 7517 7bbd a679 ef3d 6213 f13c
000000e0: 9397 6bbd c702 7abd 8934 19bd 4d0d c63d
000000f0: 5591 1dbd aba0 ce3d f09f 1abd 0430 41bd
0.08735273 -0.04712077 0.015702834 0.09919145 -0.05889665 -0.05910608 -0.03789074 -0.058883782
-0.042667575 -0.010722615 0.1029378 0.07737945 0.0956656 -0.061945826 -0.036576245 -0.05950791
0.08706365 -0.055367887 -0.02099965 0.10585335 -0.053122472 -0.049019903 -0.07313104 0.028444896
-0.060963366 -0.048382457 0.09309776 0.10671993 -0.05833439 0.080554426 0.10830767 0.07997955
0.07628435 0.10602388 -0.055065054 -0.055122916 -0.067535475 0.09741197 -0.05881861 0.083628505
0.070016846 0.10733594 -0.060106725 -0.059206527 0.10281672 0.023255264 -0.06997372 0.064761825
-0.04697587 0.100969434 -0.054574635 0.11110567 -0.058572523 -0.061301667 0.116931245 0.029428188
-0.0575176 -0.061037805 -0.037403617 0.09670506 -0.038468678 0.10089239 -0.037750185 -0.047164932

conv1.lin.weight f4 [64, 186]
00000000: 6135 5b3e 9cec 443d 86d9 a23d cf11 0d3d
00000010: 04ad bc3d 2946 9d3d 3ee2 293d 7130 8e3e
00000020: 4af2 133e 1d40 7f3e 40c4 693e a16b 883d
00000030: 1e1c 283e 0a35 df3d 1ff1 013d 56e8 1ebb
00000040: dcaf 0b3e 3f8e 32bd 09ae d13d 28fe 353e
00000050: e568 ba3d 9ccf 913d d4e7 e23c a27f 4e3d
00000060: 3ce8 853d a7c1 db3d 85a8 b4bb c2e9 7c3e
00000070: b4ba 883e 898e 783d b72a 0b3e d95f f7bd
00000080: 840e 2c3c eacd 54bd 2558 50bd 5cbb 3a3e
00000090: 7249 153e fc5d 953e d732 853e ca33 153e
000000a0: fc61 b03d 05e9 f53d 198b ba3d 347c 6dbb
000000b0: 8035 903e ec2d 20bc 18c7 92bc aeab 363e
000000c0: f8d3 733e fbe9 1a3e 173a 823e 26c7 163e
000000d0: 7b92 6b3e fc60 083e 8f65 d63d 3caa 4b3e
000000e0: b143 c83d 78df 513c f387 b13d dace 543e
000000f0: 2cfb 643e 79d4 4d3e 6eae 1a3e 50b0 043e
00000100: a8d5 2d3e 5c3c a53d 13cd 493d e17c f33d
00000110: f3f2 663e ac8a 873e 9397 8d3e fef9 3c3e
00000120: 6cf2 4b3d 78e1 393e 4fa1 183e 7b4c a83c
00000130: e887 4a3e aa7b 193c 5a48 233e dcde 723e
00000140: 325d 82bc fbfb 373e 79b8 e63d 4522 b23d
00000150: c7e6 8d3e 239d 06bd 69b6 893e ecfa 8d3e
00000160: 14ea 6f3e ddc3 6d3e 0708 333e 5b13 013e
00000170: 87c0 8f3e ace6 0a3e 1baa 64bd d4d0 3b3e
00000180: 3dd9 04bd f437 853d d6f7 c03d 70f0 463e
00000190: c2f0 db3d 79cd f23d 6625 8c3d 00b6 a6bb
000001a0: 61ed 913d 1dae 223d e798 b13d 8241 da3c
000001b0: aff8 303e 810f ccbd 0344 c73d a462 f23d
000001c0: 8655 6d3d cf95 833d ce10 b93d 758b 2abd
000001d0: 748c 8fbd ce58 b93d f3fa cfbd 4061 e23c
000001e0: 09f2 99bd 6564 303e 1c9b 053e bf0d 9f3d
000001f0: 84e7 cbbd cdbc 063e 2867 043e b617 a8bc
00000200: 02f1 0c3d 67a9 06be 987c 403c 54dc ae3b
00000210: 0756 133e 8b99 933d be30 913d 3412 133e
00000220: 65d5 cebc c044 ecbd 52fe e4bd 6674 1a3e
00000230: 6ffc 3d3d 4faa 623d fa1b 0ebd 97a3 46bd
00000240: 0bca e13d 4cda a93d e001 6c3e 241d 4e3d
00000250: 5de3 403d dd78 653e b637 8cbd 8000 4e3d
00000260: da57 91bd 196c 14bd 62a1 1b3e 4191 523e
00000270: 6988 223e bef3 69bd 5fe2 9fbc 53ba a13d
00000280: 72e3 4d3e 7ae1 f03d 9b0f 603c 36ad 483e
00000290: f8d9 98bd b349 7f3d 39dc 0abd 4f8e d9bc
000002a0: 7126 0cbd 25a8 9e3d 2b93 893d 03fc d6bd
000002b0: c68d 7c3d aff6 3b3e 0538 9fbd 79cc 423e
000002c0: 2d43 2a3e 3226 373d e561 963d 1b3d 9839
000002d0: dac3 403c 6907 2abd d0bf 1fbe 46af a83d
000002e0: 0b4e e43c c2f8 0e3e 9379 09be 40be 883c
000002f0: e2a0 84bc 658a 3abe 4ed2 c0bc e75c 183c
00000300: 041a c5bd 9af5 0dbe 648c 3dbe 818d 803d
00000310: b60c 723d 8ab7 03bd 1cd5 bdbd 1a3b be3d
00000320: 6240 08be 0f0e 603d 3a4f 91bd a113 12be
00000330: f862 903d 78bc 633c 7e34 a23c 5617 febd
00000340: 4f08 fcbd a1e7 16be 1162 1dbe b80c 15be
00000350: bcbd 92bd aec0 48bc 7e57 bdbd e1d4 8a3d
00000360: 3410 0bbc 912e e6bd d802 95bc f85f 6abc
00000370: 3306 ba3d d901 903d bc7c 663d 2412 963b
00000380: 97f0 b53d cb1e 14bd 2841 1d3d aa4b 1bbe
00000390: 2381 2abe e4f1 febd db03 a8bd 1a52 0abe
000003a0: 4c02 94bd 2779 633d f9af b5bd 56ab 163d
000003b0: 741d 91bd bb21 033d f754 dcbb eede 91bd
000003c0: aeff 593d 9e89 973d 7a2a 3cbe d369 783d
000003d0: ab4e 1ebe 7dc9 d4bd 28fa 653d 7071 22bd
000003e0: 9fb7 1cbe 5ba2 aa3d 7b2f 093b 1f23 4dbe
000003f0: 2a73 8fbd 291c fcba ebac 1ebe 78d4 73bd
0.21407081 0.04807721 0.079516456 0.03444081 0.092126876 0.076793976 0.041475527 0.27771333
0.14447895 0.24926801 0.2282877 0.066611536 0.16416976 0.10898788 0.03172409 -0.002424737
0.13641304 -0.043592688 0.10238273 0.17772734 0.09102038 0.071196765 0.027698435 0.05041469
0.06538436 0.10730296 -0.005513253 0.24698547 0.26704943 0.060682807 0.13590513 -0.12078828
0.010501508 -0.051954187 -0.05086531 0.18235534 0.14578798 0.29173267 0.2601535 0.14570537
0.08612439 0.120073356 0.09108562 -0.003623736 0.28165817 -0.009776574 -0.0179172 0.17838928
0.23811328 0.15128319 0.25434944 0.14724407 0.23005097 0.13318247 0.104685895 0.19889158
0.09778536 0.012809627 0.086685084 0.20782033 0.2236144 0.20100583 0.15105602 0.12957883
0.16976035 0.08068153 0.04926784 0.11889053 0.22553615 0.26472986 0.27654704 0.1845474
0.04979174 0.18152416 0.14905284 0.020544281 0.19778407 0.009367863 0.15945569 0.23717827
-0.01591358 0.17967217 0.11265654 0.08697943 0.27715132 -0.0328647 0.2689698 0.277305
0.23429137 0.23219247 0.17483531 0.1260504 0.28076574 0.13564557 -0.055826288 0.1834138
-0.032433737 0.06504813 0.09422271 0.19427657 0.1073928 0.11855597 0.06843071 -0.005087614
0.071253546 0.03971683 0.08671742 0.026642565 0.17282365 -0.09963895 0.09729769 0.118352205
0.05794289 0.06425058 0.09036408 -0.041636903 -0.07009211 0.09050141 -0.10155287 0.027634263
-0.07516868 0.17225797 0.13047451 0.07766294 -0.099562675 0.1315796 0.12929976 -0.020519119
0.03440953 -0.1315056 0.011748455 0.0053363238 0.14388286 0.0720702 0.07089375 0.14362413
-0.025248239 -0.115365505 -0.1118132 0.15083465 0.046383318 0.0553382 -0.03469465 -0.048495855
0.11024865 0.0829359 0.2304759 0.05032076 0.04709183 0.22409387 -0.068465635 0.050293446
-0.070968345 -0.036235902 0.15198281 0.20563222 0.15872349 -0.057117216 -0.019517122 0.07896867
0.20106295 0.11761756 0.013675596 0.19597325 -0.07463449 0.062326144 -0.033901427 -0.026557116
-0.034216348 0.07746915 0.06717523 -0.10497286 0.061658643 0.18355821 -0.07774357 0.19023313
0.16627188 0.04471416 0.07342891 0.00029037226 0.011765445 -0.041510973 -0.15600514 0.08236556
0.027869245 0.13962081 -0.13425283 0.01669228 -0.016189996 -0.18216856 -0.023537781 0.009299493
-0.09624103 -0.13863221 -0.18510586 0.0627699 0.059094153 -0.03215746 -0.09269163 0.092886165
-0.1330581 0.054700907 -0.070951894 -0.142653 0.07050127 0.013899915 0.01980042 -0.12406795
-0.12306272 -0.14736797 -0.1536944 -0.14555633 -0.07165095 -0.01225297 -0.092452034 0.06778885
-0.00848775 -0.112393506 -0.018189833 -0.014305107 0.09083214 0.070316024 0.0562713 0.0045797992
0.088837795 -0.03616218 0.038392216 -0.15165582 -0.16650824 -0.12448481 -0.0820386 -0.13507882
-0.072270006 0.05553546 -0.08871455 0.036784492 -0.07085696 0.03201459 -0.006723996 -0.071225986
0.05322235 0.07399295 -0.18375579 0.060647797 -0.15459697 -0.10389993 0.05614677 -0.039658964
-0.15304421 0.08331748 0.0020932842 -0.20032929 -0.07004388 -0.0019234467 -0.1549565 -0.059528798

conv2.bias f4 [32]
00000000: 3484 fe3d dbf3 82bd 4a61 ff3d ec2c fd3d
00000010: b2ce fe3d d239 043e 7922 83bd f25a 073e
00000020: 52ef 9e3d 5e0c 70bd c9e2 6e3d 70c6 33bd
00000030: bf64 983c 43c2 033e 7c26 70bd bf09 70bd
00000040: 6e8a 2abd ed95 0bbd c997 023e 770c 70bd
00000050: f8bd cd3d b8d0 4a3d adb9 e83d 6c0c 70bd
00000060: 0000 0000 bf18 5dbd 7f01 70bd b212 9cbd
00000070: 770c 70bd 3fa7 db3d e275 f43d 5f0c 70bd
0.124275595 -0.06394168 0.12469728 0.12362084 0.12441768 0.12912682 -0.064030595 0.13218287
0.077604905 -0.058605544 0.058321748 -0.043890417 0.018602727 0.12867074 -0.05863045 -0.058603045
-0.041635923 -0.034078527 0.12753214 -0.058605637 0.10045999 0.049515456 0.1136354 -0.058605596
0.0 -0.053978678 -0.058595177 -0.07620753 -0.058605637 0.10725259 0.11936547 -0.058605548

conv2.lin.weight f4 [32, 64]
00000000: e4bc e43d 0c11 6c3b 28cd 383d 48b6 d63d
00000010: aed0 6ebd 5c92 003e 0d25 763c a418 b23c
00000020: a5f2 783e aafd d63e 1993 813e 0746 8b3c
00000030: e24b c2bd a225 8d3e 5763 a13e e715 1a3d
00000040: 91ed 933e 9c79 87bd 869f febd 3a4a 8e3e
00000050: 7146 f53a a565 e8bd 5b36 193e 9a10 96bd
00000060: 5c49 543d 1aaf 12be fbf3 4c3e 5a70 fe3d
00000070: e09c 6cbd 4048 7c3e cc74 613c f052 16be
00000080: b29e 5d3e 6c42 10be 5823 07be 3b86 663d
00000090: e7a5 9c3e 6b88 2e3e 6d66 20be 0d66 0abe
000000a0: ced9 403e f0cc b4bd 3864 17be ee71 08be
000000b0: 44db 57bd aeb9 99bd 4474 94bd 94dc 30be
000000c0: 71df 09be 8cc6 3f3e 46b9 6e3d e43e 05be
000000d0: cd55 893e df16 753e ef98 7a3e 8975 0d3e
000000e0: 4182 063e 4cc9 513d d0ea 7a3e 31e1 773c
000000f0: 69e4 033e 93d3 9b3e 517d ddbd 29cd 1dbe
00000100: 6112 9a3d 815d 193e 165a bf3b 02ae 483b
00000110: 5b83 003e ee2c 69bd 9e0d 88be 0661 d7bc
00000120: 1cd5 0abe 639a 7dbe 5bf8 34be 68a9 c8bd
00000130: 9495 b0bc 6555 91bd e1ae f03d c4af a7bd
00000140: 78ea 79be 6a5f 26be 27b1 01be b65e db3b
00000150: 41b0 ccbd 3a34 6a3d 0f71 8a3d b8a1 113e
00000160: c292 95be b119 55be 0db5 d03d 0188 8abe
00000170: 13e2 61be d4f9 93bd 39be 883d 155c 5abe
00000180: 6f69 96be a184 883d 4dd7 8e3d fd40 fcbc
00000190: 7618 51be 839c b6bc f424 15b9 909a b4bc
000001a0: a68a bb3c f341 ecbd 0b78 84be 045b 053e
000001b0: 2a14 2b3e 291c 4dbd 93f2 2fbe daac aebd
000001c0: 60c7 403e 09a0 babd db3d dcbd 477c a8be
000001d0: 115a 0ebe 9592 be3d c760 54be a29b 83be
000001e0: c021 fa3d cbf2 48be cf61 63be e65a 9ebd
000001f0: c158 2ebe 92d2 153d 54d7 3d3e b2cf ba3c
00000200: 62b3 6e3e d48f 933e 08ec 853e 5766 833e
00000210: 9fb1 13be 7363 aa3e 6d4d f23b a405 cebd
00000220: 3427 33be 94d8 8b3c b329 9d3e 9564 163e
00000230: 6185 963e aa93 263e 30eb 453e 03bd babd
00000240: 87bc 903e cd4b a03e e9be 523e bd72 893e
00000250: a712 07bd 8ba2 f23c 4a5a 4d3e 5de5 193e
00000260: cee7 3b3e 01b0 13be 9303 963e 04a1 4c3e
00000270: bb89 15be e85b 373e 75af 953e b047 9b3e
00000280: f331 693e a3b0 c13c 5051 b0bd 855e 83bd
00000290: a0f0 46bd c532 9f3d a8ce e63d 8297 9e3e
000002a0: 6d50 39be 10c1 913e bbc9 1c3d e671 f2bd
000002b0: 67ea 473e d7e8 533e 54b8 32be b87d f83d
000002c0: c0cb 2dbe cde3 153e 69d1 cebd 3678 213e
000002d0: 64ef 05be 307b 853e 1b41 8a3e 363a 3ebe
000002e0: be8e 8bbd a53e 483d 0b65 923e a643 b43d
000002f0: 57d5 273e f816 8b3e 9250 293e 25eb 2abe
00000300: 046e 2b3e d21e 09be 3ad4 0cbd 5433 6e3d
00000310: 0645 073e 1ba8 b0bc 304f 9d3d 0965 4e3e
00000320: 934b 3b3e 1385 113e 131c 3a3d a503 353d
00000330: a1cc d6bd 8e91 863e d020 b83d 6209 863d
00000340: 5e8a f73c ff38 0abe a3dc cbbb 0365 b23b
00000350: 070c b73d 02c3 823e d201 253e a7b7 77bd
00000360: d4cd abbd 1d38 913e d849 8d3e 049d 413e
00000370: 4289 0a3e 869c 25be 6a36 673e 719d 54bd
00000380: 7e1b d6ba 03dd 2b3e 8b10 3f3e 2551 f1bd
00000390: 316c cebc 1812 9b3e 5223 2bbe edb3 9e3b
000003a0: 0d8b 383e 60cf 063e 6044 c13d 5427 f93d
000003b0: 3421 913e e065 933b 1b07 813d b68d 833e
000003c0: a9b2 88bd b689 293e b03e 843d 5c02 873e
000003d0: 78c2 403e ca31 1ebe 10cb 8e3e 1536 813e
000003e0: e44e 02bc 4605 303e c7dc b73e 07e0 a73d
000003f0: 2586 4dbd ab9a 22be 19af 02be 48a4 313d
0.111688405 0.0036020903 0.045117527 0.10483986 -0.05830448 0.12555832 0.015023482 0.021740265
0.24311312 0.41990405 0.2530754 0.017001165 -0.0948713 0.27567774 0.31521103 0.037618544
0.28892186 -0.06614992 -0.124327704 0.27791005 0.001871301 -0.11347512 0.14962141 -0.07327385
0.051827773 -0.14324608 0.20014946 0.12423773 -0.057766795 0.24636936 0.013760757 -0.14680076
0.21642569 -0.14087838 -0.13197076 0.056280356 0.30595323 0.17044227 -0.15664072 -0.13515492
0.18833086 -0.08828151 -0.14784324 -0.1332471 -0.052699342 -0.07506119 -0.072487384 -0.17271644
-0.13464142 0.18728083 0.05828216 -0.13012272 0.26823273 0.23934506 0.24472402 0.13814367
0.13135625 0.051217362 0.24503636 0.015129373 0.128801 0.30434856 -0.10814918 -0.15410294
0.07523037 0.14977075 0.0058395965 0.0030621295 0.12550108 -0.056927614 -0.2657289 -0.026291382
-0.13557857 -0.24765925 -0.17672865 -0.09797937 -0.0215557 -0.07096366 0.117521055 -0.081878215
-0.24405849 -0.16247335 -0.12665235 0.00669464 -0.09994555 0.057178713 0.067598455 0.14221847
-0.2921353 -0.20810582 0.10190783 -0.27056888 -0.22058897 -0.07225385 0.06676907 -0.21324189
-0.29377314 0.06665922 0.06974659 -0.030792708 -0.20419487 -0.022291427 -0.00014223513 -0.022046357
0.022893261 -0.11536016 -0.25872836 0.13023001 0.1670691 -0.050075684 -0.17182378 -0.085290626
0.18826056 -0.091125555 -0.107539855 -0.32907316 -0.13901545 0.09305302 -0.20740043 -0.25704676
0.122134686 -0.19623868 -0.2220528 -0.07732181 -0.17026044 0.03657777 0.18539172 0.022804115
0.23310617 0.2882067 0.2615664 0.25664017 -0.14423226 0.33279 0.007394484 -0.100596696
-0.17495424 0.017071046 0.30695876 0.14686806 0.29398635 0.16267267 0.19327998 -0.091180824
0.28268835 0.3130783 0.20580639 0.2684535 -0.032976773 0.029618522 0.20053974 0.15028901
0.18350145 -0.14422609 0.29299602 0.19983298 -0.14603321 0.17906153 0.29235426 0.3032813
0.2277296 0.023643797 -0.08609259 -0.064145125 -0.04856932 0.077733554 0.11269885 0.30974966
-0.18097086 0.28467607 0.038278323 -0.11838131 0.19523011 0.2069429 -0.17453128 0.12133354
-0.16972256 0.1463768 -0.100985356 0.15768513 -0.13079602 0.26070547 0.27002797 -0.18576893
-0.06814335 0.048887867 0.28592715 0.088019654 0.16389976 0.2716596 0.16534641 -0.16691263
0.16741186 -0.13390663 -0.034382083 0.05815442 0.13209924 -0.021564534 0.076811194 0.2015573
0.18290548 0.1421092 0.04543693 0.04419293 -0.104882486 0.26282924 0.089906335 0.065447584
0.030217346 -0.13498305 -0.0062213703 0.0054441704 0.08937841 0.25539404 0.16113976 -0.06047788
-0.08388868 0.28363124 0.275954 0.18907553 0.13528922 -0.1617299 0.22579351 -0.05190796
-0.0016335098 0.16783528 0.18658654 -0.11783055 -0.025198074 0.30287242 -0.16712692 0.004843226
0.18021794 0.13165045 0.094368696 0.12165704 0.28345644 0.0044982284 0.063001834 0.25694054
-0.06674702 0.16556439 0.06457269 0.26368988 0.18824184 -0.1544868 0.278893 0.25236574
-0.007953379 0.17189512 0.35910627 0.08197027 -0.05017676 -0.15879314 -0.12762107 0.04336956

conv3.bias f4 [16]
00000000: 5a32 163e 28c1 c53d 1bf7 aebd 6219 5dbd
00000010: 0000 0000 67fe 44bd 1ba1 8dbd c17d 2a3e
00000020: 0000 0000 7d0c 70bd 6119 5dbd 0000 0000
00000030: a575 2b3e 0ed1 2c3e d42a edbd 0c0b 70bd
0.14667645 0.09655982 -0.085432254 -0.053979285 0.0 -0.04809418 -0.06915494 0.16649534
0.0 -0.05860566 -0.05397928 0.0 0.16744097 0.16876623 -0.115804344 -0.058604285

conv3.lin.weight f4 [16, 32]
00000000: cb52 5d3e ff73 46be 7f7c 1a3e 1df0 923e
00000010: 017f 373e 9025 813e 5679 58be 3962 1c3d
00000020: 2a73 453e 3d5a 8dbe 947c 1ebe 2fe7 45be
00000030: 1f96 093e 135f 9b3e 34e8 77bd fd22 0b3e
00000040: bd6a 98be 8fd3 a63e 3263 50be f313 68be
00000050: a25f 1c3e 00b5 43bd 6d3a 9cbd a4ec 863d
00000060: b6b6 3bbe 79b5 94be 5153 a6bd d56b 88be
00000070: 667a 5cbe 4da1 5e3e 4dd3 843d 1d88 553e
00000080: 6805 06b8 9f81 eebd 7ecd b23e a632 81be
00000090: ce6d 8abe d20d 69be f2af 53be e853 25be
000000a0: cfca 9f3e 8489 113e fba8 383e aa89 71be
000000b0: 7aad 953e b757 663e d834 303d 9a03 8ebe
000000c0: 8d00 d33d 1a32 9b3e eee1 143e 5104 9abd
000000d0: abec a7be dee1 8fbe 3acf 223d a5d1 abbe
000000e0: 96ad 763e cedf 8f3e 402b 1fbd 0570 7ebc
000000f0: 9444 a0be 196c ebbc 83ee 0ebe 8dfe fb3d
00000100: b57c cc3c 1657 c8bd 9cf0 4b3e ef1e bebe
00000110: 298c 8cbe d4f5 26be 858a c1be da61 753d
00000120: cc46 acbe 98cc 763e 0cec cfbe 3c1e 233e
00000130: 2012 b4be 45f7 15bd f7f6 bfbd bb82 e7bd
00000140: 8183 2c3e 8418 853e a03c 09be f5e4 583e
00000150: 136b 413e da97 20be 742f 07be e11a 2abe
00000160: e405 98be e2bc 9a3e 474e fe3d 2f2a 843e
00000170: 268f ba3d ff38 4e3d 4f2e 4a3e 8f53 e2bd
00000180: d198 39be 9fe3 03bd fa6e 6b3e 0cd3 4b3e
00000190: 733b b1be 03f8 09be 296f e63d 246a 69bd
000001a0: a5dc 283e 1a14 7e3c 26d4 f8bc b890 9e3d
000001b0: de6d b1be 1e7f c5be 9ac3 76bc d32e 633c
000001c0: 6c98 5b3d ef31 5c3e 0592 ddbd 853a bcbd
000001d0: 0f43 8abe dc42 973e be99 98be 0fe2 23ba
000001e0: 8ba7 19be e5c9 803e 2c05 913e d470 8abd
000001f0: 9f66 b0be 3cc2 cabe 9f33 75be 109d aebe
00000200: 0446 b43e 8a9a 083d 3aeb 45be b3b0 72bd
00000210: 22c0 09be 32a1 94bd 17df ec3c 4545 4fbe
00000220: 6347 a7be d651 243e aa1e 5abe 4a56 9dbe
00000230: 0c93 85be 35e4 613e 2b64 2ebe 35bc 473e
00000240: 4919 aa3e 1162 d7bd 2369 57be 4558 85be
00000250: 7291 54be c13c ff3d 5bd2 3dbe 3ca8 0b3e
00000260: fb4c 303e a71f 01bd cc86 9e3e ea6d 43be
00000270: 7d5b b4bd 408c b43e 0dbc 30bd 7285 a83d
00000280: c82b db3d fe85 e4bd 5cf4 5dbe 7dc5 813d
00000290: 5d54 43bc 2aff 333e 2ab2 2bbe b363 93be
000002a0: 28e7 2f3e 5054 8dbe cd51 a33d ed2b 25bc
000002b0: 50e0 503e 961f 9dbe 3c02 78bc 1e4d 2dbc
000002c0: dfad 4abe 051c 0bbb beae f2bd bba2 773d
000002d0: c5e6 153d f5de d43b 5fc8 a4be ab05 13be
000002e0: 12ef 983e 4bbb b1bd d423 05bd 5afe aabe
000002f0: 2ea2 5bbe d60c 6e3e 6220 813e a2b9 213d
00000300: 1343 2a3e 6dba a6be 343b 90be f0a1 3bbe
00000310: 87d1 5abd 10d4 ce3d 267c 6dbe 0c1b 843e
00000320: 2798 9dbe 1e82 b2be 885e 48be 2b75 43bc
00000330: 8325 8fbe e0ce 4c3e 9e94 95be b6f0 aa3e
00000340: ccdd cdbe 2a35 aabd a1fe 973d 8b87 0f3e
00000350: de41 c33d f405 eebd 08e2 d1be df58 593e
00000360: 374f 9c3e 72a3 083d e6f7 e93d 07d7 75be
00000370: 90ed 94be d355 8bbd 98a5 8b3e 3b5c 3cbe
00000380: 20de c5bd cfe5 72be 6e50 33be 095a a13e
00000390: 01c1 733e 0868 ff3d 0770 6cbe 219c 8d3e
000003a0: cfeb 023e 28d4 70be 26f1 a03e 5812 0dbe
000003b0: 0d6b 033b cbe2 823e 29a7 eebd 25c6 b03e
000003c0: aa29 883e f472 423e 844e 53bd 1345 16be
000003d0: 0956 9d3e e7b7 9a3e e668 d13e 2a41 1c3e
000003e0: cee1 e03a 42d5 84be 3f70 e4bd d831 58be
000003f0: 9588 1b3d 056a 643e 4ca8 d5bd a89e 6f3e
0.21613614 -0.19380186 0.15086554 0.28698817 0.17919542 0.2522397 -0.21140036 0.03817961
0.19282213 -0.2760791 -0.1547721 -0.19326471 0.13436173 0.30345973 -0.06052418 0.13587566
-0.29768935 0.3258328 -0.2035034 -0.2266386 0.15270856 -0.047780037 -0.07628331 0.06588104
-0.18331417 -0.29044703 -0.0812136 -0.2664477 -0.21531066 0.21741219 0.06485615 0.20852704
-3.1953125e-05 -0.11645817 0.34922403 -0.25233954 -0.270369 -0.22759178 -0.20672587 -0.16145289
0.31209418 0.14212614 0.18033211 -0.23587671 0.29233915 0.22494398 0.043019146 -0.27737123
0.103028394 0.30311662 0.1453931 -0.075203545 -0.3279775 -0.2810201 0.039748408 -0.33558384
0.24089655 0.28100437 -0.038859606 -0.015529637 -0.3130232 -0.028738068 -0.13958173 0.12304411
0.024961809 -0.09782235 0.19916004 -0.37132975 -0.27450684 -0.16304713 -0.37800995 0.05990777
-0.33647764 0.24101484 -0.40609777 0.15929502 -0.35170078 -0.036612768 -0.09373277 -0.11304232
0.1684704 0.25995266 -0.13402033 0.2118109 0.18888502 -0.15682927 -0.13201696 -0.16611816
-0.29691994 0.3022223 0.12417274 0.25813434 0.09109335 0.050347324 0.19744228 -0.11051094
-0.18124701 -0.0321995 0.22991553 0.19904727 -0.3461567 -0.13473515 0.11251671 -0.05698599
0.16490419 0.015507722 -0.030374598 0.07742447 -0.34654135 -0.38573545 -0.0150612835 0.013866144
0.053612158 0.21503423 -0.10818867 -0.09190849 -0.27004287 0.29543197 -0.29804796 -0.0006251642
-0.15005319 0.25154033 0.28324258 -0.067598015 -0.34453294 -0.39601314 -0.23945473 -0.34104204
0.35209668 0.033350505 -0.19328013 -0.059250545 -0.13452199 -0.07257308 0.028914971 -0.20241268
-0.3267165 0.16046843 -0.2130076 -0.30729896 -0.2608875 0.2205971 -0.17030399 0.19505389
0.33222416 -0.105167516 -0.210362 -0.26043907 -0.20758608 0.1246276 -0.18537275 0.13638395
0.17216866 -0.031524327 0.30962217 -0.19084898 -0.088065125 0.35263252 -0.04314809 0.08228578
0.1070171 -0.111583695 -0.21675247 0.06336496 -0.011921969 0.17577806 -0.16767183 -0.28787002
0.17178023 -0.27603388 0.07974587 -0.0100812735 0.20398068 -0.3068816 -0.0151372515 -0.010577468
-0.19792889 -0.0021226418 -0.11849736 0.060457926 0.036597032 0.006496305 -0.3218412 -0.14357631
0.29869896 -0.086783014 -0.03250487 -0.3339718 -0.21448585 0.23247084 0.2522002 0.039483674
0.1662715 -0.32564107 -0.28170168 -0.18323493 -0.053422477 0.100990415 -0.2319189 0.25801885
-0.30780146 -0.34864897 -0.19567311 -0.0119297905 -0.27958307 0.20000792 -0.29214948 0.33386773
-0.4020828 -0.083109215 0.074216135 0.1401655 0.095340475 -0.11622229 -0.4099276 0.21225308
0.30529186 0.033359 0.11424236 -0.24007808 -0.29087496 -0.06803479 0.27274776 -0.18394558
-0.096615076 -0.23720478 -0.1751115 0.31514004 0.23804094 0.12471014 -0.2308961 0.2765818
0.12785266 -0.23518431 0.31433982 -0.13776529 0.002005282 0.25563654 -0.11652977 0.34526172
0.26594287 0.18989164 -0.05158855 -0.14674787 0.30729702 0.3021843 0.40900344 0.15259233
0.0017157139 -0.25943953 -0.11154222 -0.21112764 0.03797205 0.22306068 -0.10432491 0.23400366

out.weight f4 [1, 16]
00000000: 2fd0 ec3d d18c ab3c 2a6d 4e3d de41 48be
00000010: b844 38bd 7968 103d 0d7a 8a3c fa5c 543e
00000020: 884b 3e3d 1eb5 0dbe e39f 39be 3efc 543e
00000030: f6a1 713e 6d78 a43e 2c60 a93d 066c 06be
0.11563145 0.02094117 0.050397076 -0.19556376 -0.04498741 0.035255883 0.016903901 0.20738593
0.04645875 -0.13838622 -0.18127398 0.20799348 0.2359694 0.32123128 0.082702965 -0.13127145
